saved_checkpoints/emb_classifier_plm256.pth (torch, 399785 bytes, 4 tensors)

classifier.0.weight f4 [256, 256]
0.10826459 0.1924509 -0.083951354 0.32505915 -0.06408292 -0.22482398 0.16623957 -0.22430429
-0.037432503 0.015885584 0.17872761 0.33234662 0.34747213 -0.10061455 -0.062466823 -0.14673854
-0.037706524 0.1467901 -0.26090872 -0.011332569 -0.02510118 -0.15963623 -0.06042225 0.08279014
-0.010623355 0.12600048 0.03970283 -0.1966718 -0.24581906 -0.13734464 0.07059328 -0.114660494
0.011099773 -0.022779379 -0.021240583 0.1401355 -0.039914533 -0.00413386 0.21279424 -0.038495913
0.006928277 -0.07005404 0.064755104 -0.11609199 0.28676185 -0.05229944 0.020997306 -0.24219383
0.1463737 -0.13995996 -0.14936045 -0.22963884 -0.29471016 -0.16163519 0.047559917 0.059131615
-0.0048450716 -0.11726904 -0.04517428 -0.13525961 0.12778339 -0.05367634 -0.0560188 -0.20118956
0.16408747 0.16899519 -0.00040214587 -0.008467182 0.0036445088 -0.06572121 -0.056864325 0.0010478331
-0.036907695 -0.12573205 -0.25389865 0.028497279 0.05310803 -0.028125467 0.015415519 0.08401316
0.04215411 -0.145836 0.21415214 0.22013214 0.02024592 -0.009500571 0.14630724 0.16285858
0.015723579 0.20976609 -0.07936909 -0.10642274 -0.22654983 -0.040176235 -0.2010415 0.1331389
-0.24801695 0.24238709 0.24402525 -0.05965691 -0.100084744 -0.27166793 -0.02364045 -0.06110401
0.005489314 -0.032279566 0.105302826 -0.11377383 0.04595536 -0.1547675 0.17405806 0.09808664
-0.1231876 -0.08025448 0.09379139 0.08447509 -0.02504622 0.0059964703 -0.097371064 -0.024775388
-0.057667017 0.04269904 -0.049057275 -0.07281486 -0.20040728 -0.110204786 0.031104324 0.15275598
0.026180148 0.015911171 -0.1159132 0.049784668 -0.13596505 -0.22117136 0.056798935 0.073676534
-0.033378903 -0.092457466 0.15564387 -0.17242521 0.08756314 -0.12128073 0.09428812 -0.1538772
0.033603452 -0.11919771 -0.012495376 0.0046944222 -0.045713197 -0.097246185 0.029560948 0.097444445
-0.18085949 -0.10644502 0.13724062 -0.061839283 -0.15303881 0.021832924 0.26501504 0.062062867
0.32507202 0.123131834 -0.38814276 -0.14828144 0.0733074 -0.048348345 -0.024165364 0.10994604
0.051951673 -0.17826606 -0.13182166 0.23843737 0.09373319 0.20468079 0.009094312 -0.05745493
0.13596159 0.0075937174 0.0014114712 -0.123281114 -0.030677151 0.20095797 -0.35757712 -0.015737947
0.27545875 0.048026334 -0.1297932 0.2112428 0.2083703 0.3151438 0.051726427 -0.032956135
-0.051814623 0.077961296 0.04680297 0.12817179 0.097157374 -0.08202237 0.03081122 0.2894194
-0.15376332 -0.012913813 0.39534867 -0.21939074 0.10701083 0.10018988 0.18282628 0.11895083
-0.05559926 0.026033303 0.068970494 0.28464416 -0.29252246 -0.18897575 0.048196502 0.30436692
0.01266438 0.21630487 -0.0062557533 -0.22273873 -0.05653504 0.27675685 -0.10461594 -0.13877133
-0.4952104 0.17179708 0.13377413 0.14790878 -0.18956168 -0.18121234 -0.04968492 0.25476012
0.109928496 -0.08751548 0.20653102 0.053191554 0.0144432755 -0.06472231 -0.0060458686 0.11230786
0.21246722 -0.036408804 -0.13632846 -0.28738838 -0.065151505 -0.27003732 -0.028806554 0.16037928
0.2809899 0.0046954686 -0.116830125 -0.2595753 -0.0543753 -0.07111984 0.008807941 -0.050745703
00000000: d3b9 dd3d d911 453e b0ee abbd 276e a63e
00000010: e83d 83bd 4238 66be b53a 2a3e 06b0 65be
00000020: d352 19bd 7c22 823c 5f04 373e 5629 aa3e
00000030: dee7 b13e 000f cebd 36dd 7fbd a142 16be
00000040: 2872 1abd 2550 163e d495 85be 3dac 39bc
00000050: fda0 cdbc ae77 23be 527d 77bd e08d a93d
00000060: 950d 2ebc 4506 013e 6f9f 223d 5564 49be
00000070: feb7 7bbe 13a4 0cbe 3693 903d 1fd3 eabd
00000080: d3db 353c d29b babc bb00 aebc ae7f 0f3e
00000090: 6c7d 23bd 5575 87bb bce6 593e e4ad 1dbd
000000a0: 9a06 e33b 7e78 8fbd 539e 843d a3c1 edbd
000000b0: 73d2 923e f037 56bd 8b02 ac3c a901 78be
000000c0: fde2 153e aa51 0fbe f2f1 18be 7226 6bbe
000000d0: 40e4 96be b283 25be 30ce 423d fe33 723d
000000e0: 68c3 9ebb c02a f0bd aa08 39bd 7f81 0abe
000000f0: a6d9 023e b9db 5bbd f873 65bd a304 4ebe
00000100: 8c06 283e 130d 2d3e 1bd7 d2b9 efb9 0abc
00000110: b6d8 6e3b d798 86bd 91ea 68bd 7257 893a
00000120: 862c 17bd e7bf 00be 01ff 81be 2073 e93c
00000130: ce87 593d 6167 e6bc 5f91 7c3c 170f ac3d
00000140: caa9 2c3d 0856 15be b34a 5b3e 526a 613e
00000150: c6da a53c 48a8 1bbc 91d1 153e 66c4 263e
00000160: bcce 803c eccc 563e 438c a2bd 2af4 d9bd
00000170: aefc 67be d68f 24bd d3dd 4dbe 9055 083e
00000180: 28f8 7dbe 5234 783e c1e1 793e ce5a 74bd
00000190: 3bf9 ccbd 0f18 8bbe 9ea9 c1bc 3348 7abd
000001a0: b4df b33b 9437 04bd 02a9 d73d 4102 e9bd
000001b0: b03b 3c3d 5f7b 1ebe 473c 323e a6e1 c83d
000001c0: c849 fcbd 765c a4bd b315 c03d 4701 ad3d
000001d0: bb2d cdbc 0a7e c43b 7b6a c7bd c1f5 cabc
000001e0: 4034 6cbd 30e5 2e3d 48f0 48bd f51f 95bd
000001f0: 9137 4dbe 0cb3 e1bd 7fce fe3c 106c 1c3e
00000200: c077 d63c 2558 823c e663 edbd 02eb 4b3d
00000210: 6c3a 0bbe bf7a 62be 00a6 683d b9e3 963d
00000220: 51b8 08bd 575a bdbd 1b61 1f3e 3c90 30be
00000230: 4e54 b33d 0862 f8bd 211a c13d fc91 1dbe
00000240: c6a3 093d ee1d f4bd 68b9 4cbc abd3 993b
00000250: c33d 3bbd 0229 c7bd cd29 f23c f490 c73d
00000260: 3b33 39be d9ff d9bd ce88 0c3e 304b 7dbd
00000270: 35b6 1cbe f6da b23c 0db0 873e a235 7e3d
00000280: d76f a63e 8b2c fc3d a6ba c6be 17d7 17be
00000290: 3122 963d ea08 46bd 71f6 c5bc 642b e13d
000002a0: 47cb 543d 618b 36be 42fc 06be ed28 743e
000002b0: 30f7 bf3d d797 513e 4f00 153c dc55 6bbd
000002c0: 8439 0b3e b8d4 f83b 1d01 b93a cf7a fcbd
000002d0: a64e fbbc edc7 4d3e 5914 b7be deec 80bc
000002e0: ee08 8d3e 43b7 443d 82e8 04be 0850 583e
000002f0: 065f 553e 875a a13e 17df 533d 03fd 06bd
00000300: 923b 54bd 2caa 9f3d 79b4 3f3d 773f 033e
00000310: 72fa c63d 58fb a7bd d067 fc3c c82e 943e
00000320: 2274 1dbe 7594 53bc 246b ca3e f7a7 60be
00000330: 7e28 db3d 5a30 cd3d d036 3b3e 7e9c f33d
00000340: 0dbc 63bd cb43 d53c 6740 8d3d e1bc 913e
00000350: 81c5 95be dc82 41be b269 453d fbd5 9b3e
00000360: 427e 4f3c 067f 5d3e 10fd ccbb 9f15 64be
00000370: 4991 67bd 13b3 8d3e e240 d6bd 121a 0ebe
00000380: 388c fdbe 93eb 2f3e 16fc 083e 6675 173e
00000390: 751c 42be ba8f 39be 6a82 4bbd eb6f 823e
000003a0: 3122 e13d 513b b3bd de7c 533e 63df 593d
000003b0: 7da3 6c3c 218d 84bd 6c1c c6bb aa01 e63d
000003c0: 0291 593e 6621 15bd b099 0bbe 9224 93be
000003d0: 276e 85bd 5542 8abe b9fb ebbc 773a 243e
000003e0: e8dd 8f3e 72dc 993b a244 efbd 0ee7 84be
000003f0: a2b8 5ebd 47a7 91bd 2f4f 103c bada 4fbd

classifier.0.bias f4 [256]
0.017457278 0.09581042 0.11401148 0.039352294 -0.09272776 -0.011704577 0.10585899 -0.07779671
-0.115476176 0.13416572 -0.051954493 0.028149778 -0.06126305 0.012836156 -0.06225473 0.0028704547
0.010024097 -0.028558226 0.022249179 0.08135468 0.015692335 0.003306354 0.034614127 -0.028341481
0.08596985 -0.04753966 -0.11802856 -0.08208338 0.07847017 -0.06350698 -0.03375178 -0.034501087
-0.036303367 -0.044154678 0.030757833 -0.055535875 -0.015094408 -0.07495377 -0.009786594 -0.046908017
0.12145083 -0.028609598 0.004313703 -0.110080846 0.07639659 -0.085139036 -0.04783408 -0.07324897
-0.051551603 0.0076493155 -0.030129395 0.016645549 0.03787747 0.079322025 -0.024816658 -0.087053716
-0.08368286 0.15398923 -0.044461485 0.06390741 0.036019377 0.0120163495 -0.050110955 0.026142275
-0.027963882 -0.06566001 -0.008557782 -0.00084805884 0.04910668 0.018964007 0.012236792 -0.0035579456
0.042153496 0.0888311 0.029229946 0.02005638 0.03512736 0.048739307 0.037360843 -0.04797925
-0.012178557 -0.021774668 -0.054885343 -0.038371067 -0.008603142 -0.021819867 0.043773856 -0.012526798
0.019231645 -0.010407622 0.09319135 -0.02811119 0.03107645 0.06559306 0.010850854 0.11008822
-0.07423895 -0.025310129 0.08935964 0.019881345 -0.037000813 -0.002315316 0.010749396 0.038902003
0.018734422 -0.16106255 -0.07369848 -0.01445232 -0.0048665185 -0.04836675 -0.0427417 0.04759192
-0.014763307 0.03209686 0.04458116 0.042946063 0.06966048 0.007775091 -0.046164062 0.023810184
-0.045821954 -0.08464206 0.0975306 0.019202841 0.0567699 0.013838553 0.18791045 -0.12924138
-0.07660527 -0.036451716 0.12467218 -0.053348627 -0.03481823 -0.041346848 0.043799996 -0.082739726
0.05970681 -0.05136716 0.056897692 -0.018945452 -0.0073939045 0.050586898 -0.007313107 0.10225044
-0.07095248 -0.016854549 0.09807518 0.041012187 0.08211705 -0.009293972 0.02330361 0.13994001
-0.039777275 0.04282962 -0.007851481 0.041233424 0.048060354 0.011385735 0.056371268 0.0950016
0.00977766 0.0041597392 0.10652494 -0.010859091 0.050627947 -0.011794421 0.03142905 0.13187288
0.08149304 -0.086422 -0.08521532 -0.11808761 -0.08708052 -0.025094697 0.07203804 -0.0373808
0.03333296 -0.022511322 -0.08444179 0.10770153 -0.05147638 0.023183985 -0.07242501 0.045263376
0.024557026 -0.06660955 -0.10172587 -0.1313669 0.103803925 0.052355625 0.00027746463 0.0213838
-0.002740249 0.04279894 0.013647683 6.048449e-05 -0.12359739 0.008653894 -0.06676137 0.0768908
-0.056544207 -0.06942445 0.026523486 -0.07768237 0.049173 0.034780506 -0.062480405 -0.033003032
-0.044208474 -0.0082762735 0.014582534 -0.0005285421 -0.00057673606 0.014474874 -0.020549731 -0.033605892
0.03633194 -0.05364666 0.041041415 -0.10581647 -0.010082769 -0.04601129 0.09018092 -0.036174826
-0.012384823 0.051437255 0.025786228 0.07309513 0.017144656 -0.0899616 -0.0642755 -0.031193128
0.047786426 -0.048738766 0.04699651 0.020265145 0.06554023 -0.0010791885 0.09746884 -0.032929894
0.0061531183 -0.0028438766 0.040268272 0.04440426 0.079014756 0.06916502 0.04607653 -0.03441466
0.12043357 -0.038367752 -0.004072613 0.052051753 -0.050039712 0.10671776 0.114319645 -0.024772221
00000000: 9102 8f3c 4138 c43d da7e e93d df2f 213d
00000010: 0de8 bdbd 8ec4 3fbc 99cc d83d e253 9fbd
00000020: c67e ecbd bd62 093e 3cce 54bd 5d9a e63c
00000030: f7ee 7abd be4e 523c d1fe 7ebd 3d1e 3c3b
00000040: 1c3c 243c f1f2 e9bc e943 b63c 489d a63d
00000050: 368d 803c 6aaf 583b 8bc7 0d3d 652c e8bc
00000060: f610 b03d f2b8 42bd f5b8 f1bd 551b a8bd
00000070: f8b4 a03d f30f 82bd 4e3f 0abd 0351 0dbd
00000080: d7b2 14bd 89db 34bd daf7 fb3c 9679 63bd
00000090: 894e 77bc 5d81 99bd f357 20bc 9f22 40bd
000000a0: 36bb f83d ad5e eabc f759 8d3b 1172 e1bd
000000b0: d175 9c3d 605d aebd abed 43bd 8e03 96bd
000000c0: c627 53bd 1ca7 fa3b ecd1 f6bc 3f5c 883c
000000d0: 6825 1b3d 9673 a23d 4e4c cbbc 3849 b2bd
000000e0: eb61 abbd 5aaf 1d3e 3f1d 36bd e3e1 823d
000000f0: 0e89 133d 39e0 443c 2541 4dbd 5328 d63c
00000100: 8314 e5bc c178 86bd f035 0cbc 4450 5eba
00000110: 1624 493d 685a 9b3c d37c 483c 6c2c 69bb
00000120: 25a9 2c3d 14ed b53d a473 ef3c 474d a43c
00000130: b5e1 0f3d dea2 473d af07 193d e485 44bd
00000140: 9288 47bc ca60 b2bc 74cf 60bd fb2a 1dbd
00000150: 31f4 0cbc 94bf b2bc 374c 333d 333d 4dbc
00000160: af8b 9d3c bb84 2abc 1bdb be3d 7049 e6bc
00000170: 0a94 fe3c a755 863d c8c7 313c ef75 e13d
00000180: 970a 98bd 3057 cfbc 3002 b73d 34de a23c
00000190: 2a8e 17bd 8ebc 17bb 3c1e 303c b557 1f3d
000001a0: ee78 993c 95ed 24be 3bef 96bd 6cc9 6cbc
000001b0: 5177 9fbb 371c 46bd ec11 2fbd bfef 423d
000001c0: cce1 71bc ff77 033d bc9a 363d 36e8 2f3d
000001d0: 27aa 8e3d 31c6 fe3b 8716 3dbd 930d c33c
000001e0: cdaf 3bbd d158 adbd 20be c73d 474f 9d3c
000001f0: 8e87 683d 19bb 623c 996b 403e da57 04be
00000200: 39e3 9cbd 654e 15bd 2154 ff3d 1784 5abd
00000210: 8f9d 0ebd 505b 29bd a067 333d 7273 a9bd
00000220: 218f 743d 5f66 52bd 8e0d 693d 7e33 9bbc
00000230: 9148 f2bb 3534 4f3d caa2 efbb ae68 d13d
00000240: 894f 91bd 8d12 8abc a4db c83d 65fc 273d
00000250: fc2c a83d be45 18bc 36e7 be3c 6f4c 0f3e
00000260: 7fed 22bd 1d6e 2f3d 80a3 00bc 61e4 283d
00000270: efda 443d 3c8b 3a3c 8fe5 663d 3390 c23d
00000280: 7a32 203c 6c4e 883b bf29 da3d 54ea 31bc
00000290: 405f 4f3d 633d 41bc bfbb 003d af09 073e
000002a0: d3e5 a63d 04fe b0bd 5f85 aebd ebd7 f1bd
000002b0: 4657 b2bd 6593 cdbc ae88 933d 9c1c 19bd
000002c0: 2488 083d aa69 b8bc d1ef acbd 9f92 dc3d
000002d0: e6d8 52bd 57ec bd3c 9053 94bd 1766 393d
000002e0: d12b c93c 966a 88bd a755 d0bd 0b85 06be
000002f0: 2797 d43d da72 563d ac78 9139 142d af3c
00000300: c095 33bb f14d 2f3d 889a 5f3c bab0 7d38
00000310: a120 fdbd 10c9 0d3c 2fba 88bd ec78 9d3d
00000320: e69a 67bd 682e 8ebd c847 d93c ef17 9fbd
00000330: a169 493d 0176 0e3d 74eb 7fbd 302e 07bd
00000340: f213 35bd 3599 07bc 95eb 6e3c dc8d 0aba
00000350: 1a30 17ba 0628 6d3c e957 a8bc 55a6 09bd
00000360: cdd0 143d 9abc 5bbd 0b1b 283d 4eb6 d8bd
00000370: 3332 25bc 5676 3cbd c6b0 b83d 0e2c 14bd
00000380: b6e9 4abc dfaf 523d a43d d33c e6b2 953d
00000390: f372 8c3c ca3d b8bd e0a2 83bd bb88 ffbc
000003a0: b3bb 433d 4da2 47bd 6a7f 403d 1703 a63c
000003b0: f539 863d 8f73 8dba be9d c73d 7fe1 06bd
000003c0: 19a0 c93b 5560 3abb 58f0 243d 3ee1 353d
000003d0: 7dd2 a13d 64a6 8d3d beba 3c3d 63f6 0cbd
000003e0: e0a5 f63d 8127 1dbd 8e73 85bb 3834 553d
000003f0: 71f6 4cbd d78e da3d 6b20 ea3d 1def cabc

classifier.3.weight f4 [130, 256]
-0.012949628 -0.15515333 0.07884878 -0.23784663 -0.045525763 0.13576746 0.018304607 0.06243804
-0.2154927 0.13720526 0.024151867 -0.12885396 0.006578754 -0.2482055 0.07784847 -0.2030243
-0.09155145 0.013901697 0.07058426 0.082431406 -0.08491109 0.03820809 -0.30166227 0.28456542
-0.020565107 0.02411755 0.11480585 -0.06483349 0.03906803 0.0384841 0.02223514 0.0012712929
0.044896994 0.10117197 0.069424964 0.009142105 0.015868556 0.13046224 -0.017027913 -0.005369997
-0.052576248 -0.36019427 -0.030603569 0.115624905 -0.41784996 0.06503107 0.03755623 -0.09458653
0.09869303 0.012325942 -0.20614505 0.048722148 0.054924436 -0.10078879 0.028008832 -0.027889347
0.10327251 -0.17560017 -0.031823702 -0.0010941623 0.15099281 0.100406624 -0.3236508 0.03322374
0.0727244 0.023304163 -0.1831024 -0.2907186 -0.10445752 0.07511192 -0.17302993 -0.2837554
-0.088835865 -0.1414888 -0.059854437 0.049753513 -0.261778 -0.021462914 0.0130876815 0.082793914
-0.037361063 -0.029796042 0.027211925 -0.046767455 0.012387803 0.02255755 -0.092067234 0.02249615
0.11072016 -0.0061690845 -0.07830337 0.0028764824 -0.16536134 0.030135574 0.099624485 0.055799194
0.10411539 0.066990145 0.051205307 0.1362289 -0.002461944 0.034794208 0.007855887 -0.47565496
0.10458706 0.11707719 0.20659265 -0.11379322 -0.32353404 -0.024101432 0.052748073 0.029950472
-0.6416059 -0.07418754 0.033659533 0.12368618 -0.113918714 -0.04336614 0.1267353 0.078825615
0.0833789 0.112057656 0.13481484 0.06706753 0.11235761 0.18585235 -0.31625703 -0.026342126
-0.023117017 0.115052305 -0.1275333 -0.2267439 -0.28466678 0.05670375 -0.11864111 0.030133532
-0.29673395 0.038280807 0.059630573 0.09989076 -0.046459667 0.076458625 -0.35491437 -0.30391788
0.032836292 -0.34987304 0.03193594 -0.107820064 -0.124261715 0.057057176 0.45147333 0.09117308
-0.31614 -0.10577526 -0.2692611 0.09519737 -0.100357436 0.00920031 0.062205046 -0.02887955
0.1041666 0.080568075 -0.10779445 0.093166195 0.0459037 -0.24211392 0.07435165 0.13001475
0.05417731 -0.05095722 0.09574684 0.03769763 0.013252557 0.0029185496 -0.050653186 0.16771531
0.048030492 -0.2907155 0.0007500755 -0.48257652 0.027129507 0.11192066 0.045707893 0.025243076
0.008915812 -0.0037030317 0.077800445 0.04737621 -0.17708443 0.07682861 -0.10628347 0.031291764
0.068191275 -0.3807773 -0.5483523 0.067213565 0.16727662 -0.12314021 0.015872195 -0.023147827
0.03082886 -0.27582175 -0.1164951 -0.07035083 -0.05049151 -0.51612484 -0.028403409 0.13770142
0.09753822 0.099347815 0.007744639 -0.11759687 0.051989727 -0.19363013 -0.053647865 0.007384724
-0.08049349 -0.285426 0.027626699 0.08029833 0.012479441 0.10772033 -0.23608018 0.097574964
-0.04361625 0.06799785 0.048593964 0.11024809 0.057882257 0.08522282 0.1321698 -0.67071295
0.12824757 0.104416214 -0.00028785333 0.018903214 0.117236495 -0.07154873 -0.005722203 0.024413237
0.26707622 -0.21934932 -0.01799016 0.12873513 0.09117772 -0.081163675 -0.2126155 0.07576378
-0.05623558 0.072732344 -0.15579835 0.076737456 0.07310529 -0.101637796 -0.014875054 0.11836204
00000000: ad2a 54bc 84e0 1ebe 787b a13d 118e 73be
00000010: 3979 3abd a006 0b3e 8bf3 953c 08bf 7f3d
00000020: 1eaa 5cbe 897f 0c3e 23da c53c 4bf2 03be
00000030: 9792 d73b 9529 7ebe 056f 9f3d 9ae5 4fbe
00000040: 547f bbbd f1c3 633c 7b8e 903d ccd1 a83d
00000050: dee5 adbd 1680 1c3d 7a73 9abe 8fb2 913e
00000060: 2878 a8bc 2b92 c53c 541f eb3d 6cc7 84bd
00000070: cc05 203d 81a1 1d3d 7826 b63c 83a1 a63a
00000080: e9e5 373d 4033 cf3d ad2e 8e3d c4c8 153c
00000090: c6fe 813c e597 053e 1f7e 8bbc cdf6 afbb
000000a0: 315a 57bd 626b b8be 56b4 fabc c0cc ec3d
000000b0: 6ef0 d5be 022f 853d 90d4 193d 95b6 c1bd
000000c0: 921f ca3d bff2 493c b017 53be e090 473d
000000d0: 72f8 603d 5a6a cebd c772 e53c 3378 e4bc
000000e0: 8a80 d33d 88d0 33be 9259 02bd ff69 8fba
000000f0: dc9d 1a3e fda1 cd3d 8fb5 a5be 9e15 083d
00000100: 88f0 943d 5fe8 be3c 327f 3bbe 11d9 94be
00000110: d3ed d5bd 47d4 993d c22e 31be 6348 91be
00000120: 94ef b5bd 71e2 10be ed29 75bd 57ca 4b3d
00000130: c407 86be fed2 afbc b76d 563c db8f a93d
00000140: ea07 19bd d416 f4bc 8beb de3c 3b8f 3fbd
00000150: 36f6 4a3c 9cca b83c bf8d bcbd d949 b83c
00000160: 40c1 e23d 0826 cabb 845d a0bd 5e83 3c3b
00000170: 7c54 29be e1de f63c ec07 cc3d b28d 643d
00000180: 733a d53d 2132 893d a8bc 513d 977f 0b3e
00000190: 9158 21bb 5f84 0e3d fab5 003c 0c89 f3be
000001a0: be31 d63d 2ac6 ef3d 068d 533e 6b0c e9bd
000001b0: 41a6 a5be 5e70 c5bc 5d0e 583d b15a f53c
000001c0: 4940 24bf a3ef 97bd 94de 093d 2e4f fd3d
000001d0: 374e e9bd b2a0 31bd e6c6 013e 536f a13d
000001e0: 8fc2 aa3d 7c7e e53d e70c 0a3e b35a 893d
000001f0: bf1b e63d 1450 3e3e 71ec a1be 71cb d7bc
00000200: e65f bdbc 8ba0 eb3d 1798 02be 8e2f 68be
00000210: d8bf 91be 3142 683d 1cfa f2bd 99da f63c
00000220: 83ed 97be 56cc 1c3d 303f 743d 8793 cc3d
00000230: 7e4c 3ebd 5796 9c3d 56b7 b5be 209b 9bbe
00000240: 597f 063d 8f22 b3be 43cf 023d c4d0 dcbd
00000250: ed7c febd c9b4 693d 8327 e73e f4b8 ba3d
00000260: 1add a1be b3a0 d8bd 97dc 89be d7f6 c23d
00000270: 3388 cdbd e6bc 163c b8ca 7e3d ce94 ecbc
00000280: 4c55 d53d e000 a53d 56c3 dcbd ebcd be3d
00000290: 8505 3c3d b6ec 77be ae45 983d 9622 053e
000002a0: 07e9 5d3d 85b8 50bd eb16 c43d d468 1a3d
000002b0: 4121 593c 2345 3f3b b779 4fbd 90bd 2b3e
000002c0: 9fbb 443d a9d8 94be b7a0 443a 4514 f7be
000002d0: b33e de3c a936 e53d 3338 3b3d 91ca ce3c
000002e0: a013 123c 90ae 72bb d755 9f3d 8f0d 423d
000002f0: 9f55 35be 5158 9d3d 26ab d9bd cb2b 003d
00000300: dea7 8b3d 3ef5 c2be d160 0cbf 44a7 893d
00000310: 904a 2b3e ef30 fcbd 6806 823c 83a0 bdbc
00000320: ce8c fc3c 8238 8dbe fc94 eebd 1914 90bd
00000330: 30d0 4ebd c220 04bf 44ae e8bc 9a01 0d3e
00000340: 1ec2 c73d de76 cb3d bec6 fd3b a1d6 f0bd
00000350: 2ef3 543d fa46 46be ddbd 5bbd 8efb f13b
00000360: c5d9 a4bd 5b23 92be 6351 e23c 7373 a43d
00000370: 9276 4c3c 7a9c dc3d 01bf 71be 62d5 c73d
00000380: f4a6 32bd 7542 8b3d 770a 473d c0c9 e13d
00000390: f215 6d3d 4d89 ae3d 8557 073e d8b3 2bbf
000003a0: 5553 033e 2bd8 d53d 05eb 96b9 eada 9a3c
000003b0: b019 f03d 2488 92bd 5181 bbbb 45fe c73c
000003c0: 37be 883e 1c9d 60be 1a60 93bc 24d3 033e
000003d0: 62bb ba3d 2439 a6bd e1b7 59be 0a2a 9b3d
000003e0: 4857 66bd b2f4 943d 9a89 1fbe 8728 9d3d
000003f0: 3ab8 953d 7a27 d0bd 80b6 73bc cc67 f23d

classifier.3.bias f4 [130]
-0.040535484 0.017149378 0.0030134283 0.022731543 -0.00032188834 0.010486676 0.032686923 0.03414062
-0.050809823 0.030681504 0.03416498 -0.020072011 -0.005882996 -0.014651536 0.035808712 -0.052424833
0.018595757 0.018465886 0.036421172 -0.028295157 -0.00803122 0.018593663 -0.0042474545 0.08728808
-0.009227496 0.090633236 0.06455178 0.08060657 -0.0860326 -0.0055092988 0.02975983 0.024299486
0.04171364 0.029819943 -0.040592004 -0.0065418123 -0.02530854 -0.039304554 0.009710773 -0.0073702494
-0.010074141 -0.043954175 -0.033698525 0.02243886 0.08979406 0.031339757 -0.0097146705 -0.03998039
-0.009174043 0.0002993805 0.07829026 -0.04285642 -0.028243234 0.015232443 -0.04375341 0.009713178
0.04092743 -0.07628052 0.041683555 -0.051932726 0.0048832498 -0.074374534 0.017462505 0.06186512
0.009111715 0.0065462156 -0.03692318 -0.064627804 -0.051440988 -0.050771438 0.010930693 0.034849178
-0.039749492 -0.056829665 0.045131333 -0.067991644 -0.024902182 0.032524418 -0.026640063 0.036149096
0.016805142 -0.0043112948 0.010682222 0.009573817 0.004989634 0.05624018 -0.09138132 -0.025575709
-0.042213287 -0.008237987 -0.061217993 0.05102718 0.038282864 -0.006635919 0.008895062 0.021784995
-0.035323016 0.014810958 0.064113334 0.039774757 -0.017727911 -0.028232457 -0.057713512 0.024303827
-0.06382204 -0.0027221506 0.008003527 -0.0230704 0.030018203 -0.009030654 0.01698383 0.055951685
-0.00010318417 -0.032670494 -0.06981115 -0.031847306 0.012350747 0.02686228 -0.031347 0.03917283
0.03444056 0.05282359 -0.02198949 -0.03259318 -0.028045723 0.0444854 -0.05885745 -0.043293767
-0.06774634 -0.014428026
00000000: 8908 26bd da7c 8c3c f07c 453b 8037 ba3c
00000010: 1fc3 a8b9 4fd0 2b3c b9e2 053d 09d7 0b3d
00000020: f61d 50bd c757 fb3c 94f0 0b3d 0f6e a4bc
00000030: 26c6 c0bb ff0c 70bc 28ac 123d 6cbb 56bd
00000040: 2156 983c c545 973c 5e2e 153d 3fcb e7bc
00000050: 6195 03bc bd51 983c 3b2e 8bbb 18c4 b23d
00000060: ec2e 17bc eb9d b93d b933 843d 0f15 a53d
00000070: dc31 b0bd 5987 b4bb e3ca f33c b70f c73c
00000080: ecdb 2a3d f448 f43c cd43 26bd b35c d6bb
00000090: db53 cfbc d0fd 20bd ef19 1f3c 2282 f1bb
000000a0: 030e 25bc 4b09 34bd 7707 0abd b3d1 b73c
000000b0: f3e5 b73d 1e5e 003d 482a 1fbc 7ac2 23bd
000000c0: ba4e 16bc 2cf6 9c39 a556 a03d 378a 2fbd
000000d0: 5b5e e7bc 7f91 793c c736 33bd 0524 1f3c
000000e0: 85a3 273d f638 9cbd 60bc 2a3d 69b7 54bd
000000f0: ab03 a03b ad51 98bd 870d 8f3c 4866 7d3d
00000100: 4d49 153c a381 d63b c33c 17bd 955b 84bd
00000110: c9b3 52bd b6f5 4fbd a616 333c 03be 0e3d
00000120: 5dd0 22bd 39c6 68bd a2db 383d 343f 8bbd
00000130: a9ff cbbc 5338 053d 433c dabc 1311 143d
00000140: f0aa 893c c345 8dbb 7d04 2f3c 80db 1c3c
00000150: 1580 a33b 1a5c 663d 2126 bbbd 2684 d1bc
00000160: d7e7 2cbd 9ff8 06bc b8bf 7abd e001 513d
00000170: 7ece 1c3d 2072 d9bb 98bc 113c 7276 b23c
00000180: deae 10bd a9a9 723c da4d 833d dbea 223d
00000190: 203a 91bc c147 e7bc 0165 6cbd d218 c73c
000001a0: 21b5 82bd 1c66 32bb 3a21 033c 23fe bcbc
000001b0: bce8 f53c 4ff5 13bc ac21 8b3c 982d 653d
000001c0: 9464 d8b8 7fd1 05bd 26f9 8ebd 5272 02bd
000001d0: ca5a 4a3c 490e dc3c b665 00bd b073 203d
000001e0: 8b11 0d3d 8c5d 583d 4e23 b4bc 6d80 05bd
000001f0: 25c0 e5bc 5336 363d 8214 71bd ce54 31bd
00000200: 98be 8abd 8763 6cbc
